gpu(0)
TARGET CLASS: toxic
Number of comments: 42768
BERT START 2019-12-26 18:04:35.888863
BERT END 2019-12-26 18:09:09.300417
# Embeddings loaded >> Matrix size: (743478, 1024)
BERT LOADED 2019-12-26 18:09:12.933110
Model: "sequential_1"
_________________________________________________________________
Layer (type)                 Output Shape              Param #   
=================================================================
embedding_1 (Embedding)      (None, 250, 1024)         761321472 
_________________________________________________________________
bidirectional_1 (Bidirection (None, 250, 256)          1180672   
_________________________________________________________________
dropout_1 (Dropout)          (None, 250, 256)          0         
_________________________________________________________________
bidirectional_2 (Bidirection (None, 128)               164352    
_________________________________________________________________
dropout_2 (Dropout)          (None, 128)               0         
_________________________________________________________________
dense_1 (Dense)              (None, 1)                 129       
=================================================================
Total params: 762,666,625
Trainable params: 1,345,153
Non-trainable params: 761,321,472
_________________________________________________________________
None

# N Fold 1
target class: toxic
acc: 0.8597147533317746
auc: 0.9275871726036149
p: 0.8878048780487805
r: 0.8310502283105022
f: 0.8584905660377359

# N Fold 2
target class: toxic
…
