gpu(0)
TARGET CLASS: toxic
Number of comments: 42768
BERT START 2019-12-25 09:47:54.409366
BERT END 2019-12-25 09:52:29.188544
# Embeddings loaded >> Matrix size: (743478, 1024)
BERT LOADED 2019-12-25 09:52:32.810722
Model: "sequential_1"
_________________________________________________________________
Layer (type)                 Output Shape              Param #   
=================================================================
embedding_1 (Embedding)      (None, 250, 1024)         761321472 
_________________________________________________________________
lstm_1 (LSTM)                (None, 250, 128)          590336    
_________________________________________________________________
dropout_1 (Dropout)          (None, 250, 128)          0         
_________________________________________________________________
lstm_2 (LSTM)                (None, 64)                49408     
_________________________________________________________________
dropout_2 (Dropout)          (None, 64)                0         
_________________________________________________________________
dense_1 (Dense)              (None, 1)                 65        
=================================================================
Total params: 761,961,281
Trainable params: 639,809
Non-trainable params: 761,321,472
_________________________________________________________________
None

# N Fold 1
target class: toxic
acc: 0.8636895019873744
auc: 0.9351322137046609
p: 0.8637015781922525
r: 0.8583650190114068
f: 0.8610250297973778

# N Fold 2
target class: toxic
…
