gpu(0)
TARGET CLASS: toxic
Number of comments: 42768
BERT START 2019-12-23 14:47:09.756249
BERT END 2019-12-23 14:51:44.914016
# Embeddings loaded >> Matrix size: (743478, 1024)
BERT LOADED 2019-12-23 14:51:48.563605
Model: "sequential_1"
_________________________________________________________________
Layer (type)                 Output Shape              Param #   
=================================================================
embedding_1 (Embedding)      (None, 250, 1024)         761321472 
_________________________________________________________________
dense_1 (Dense)              (None, 250, 128)          131200    
_________________________________________________________________
dropout_1 (Dropout)          (None, 250, 128)          0         
_________________________________________________________________
dense_2 (Dense)              (None, 250, 64)           8256      
_________________________________________________________________
dropout_2 (Dropout)          (None, 250, 64)           0         
_________________________________________________________________
flatten_1 (Flatten)          (None, 16000)             0         
_________________________________________________________________
dense_3 (Dense)              (None, 1)                 16001     
=================================================================
Total params: 761,476,929
Trainable params: 155,457
Non-trainable params: 761,321,472
_________________________________________________________________
None

# N Fold 1
target class: toxic
acc: 0.8185644143090952
auc: 0.8967315056319722
p: 0.7982456140350878
r: 0.8520599250936329
f: 0.8242753623188407

# N Fold 2
target class: toxic
…
