gpu(0)
TARGET CLASS: toxic
Number of comments: 42768
BERT START 2019-12-23 21:01:20.135747
BERT END 2019-12-23 21:05:55.290930
# Embeddings loaded >> Matrix size: (743478, 1024)
BERT LOADED 2019-12-23 21:05:58.913188
Model: "sequential_1"
_________________________________________________________________
Layer (type)                 Output Shape              Param #   
=================================================================
embedding_1 (Embedding)      (None, 250, 1024)         761321472 
_________________________________________________________________
conv1d_1 (Conv1D)            (None, 241, 128)          1310848   
_________________________________________________________________
dropout_1 (Dropout)          (None, 241, 128)          0         
_________________________________________________________________
conv1d_2 (Conv1D)            (None, 237, 64)           41024     
_________________________________________________________________
dropout_2 (Dropout)          (None, 237, 64)           0         
_________________________________________________________________
flatten_1 (Flatten)          (None, 15168)             0         
_________________________________________________________________
dense_1 (Dense)              (None, 1)                 15169     
=================================================================
Total params: 762,688,513
Trainable params: 1,367,041
Non-trainable params: 761,321,472
_________________________________________________________________
None

# N Fold 1
target class: toxic
acc: 0.8218377367313537
auc: 0.893263871638146
p: 0.8341487279843445
r: 0.8012218045112782
f: 0.817353787152445

# N Fold 2
target class: toxic
…
