gpu(0)
TARGET CLASS: severe_toxic
Number of comments: 3924
BERT START 2019-12-23 17:18:47.552484
BERT END 2019-12-23 17:19:18.666336
# Embeddings loaded >> Matrix size: (66260, 1024)
BERT LOADED 2019-12-23 17:19:19.009154
Model: "sequential_1"
_________________________________________________________________
Layer (type)                 Output Shape              Param #   
=================================================================
embedding_1 (Embedding)      (None, 250, 1024)         67850240  
_________________________________________________________________
dense_1 (Dense)              (None, 250, 128)          131200    
_________________________________________________________________
dropout_1 (Dropout)          (None, 250, 128)          0         
_________________________________________________________________
dense_2 (Dense)              (None, 250, 64)           8256      
_________________________________________________________________
dropout_2 (Dropout)          (None, 250, 64)           0         
_________________________________________________________________
flatten_1 (Flatten)          (None, 16000)             0         
_________________________________________________________________
dense_3 (Dense)              (None, 1)                 16001     
=================================================================
Total params: 68,005,697
Trainable params: 155,457
Non-trainable params: 67,850,240
_________________________________________________________________
None

# N Fold 1
target class: severe_toxic
acc: 0.9236641221374046
auc: 0.9698235232509427
p: 0.9397590361445783
r: 0.8863636363636364
f: 0.912280701754386

# N Fold 2
target class: severe_toxic
…
