gpu(0)
TARGET CLASS: severe_toxic
Number of comments: 3924
BERT START 2019-12-24 12:40:20.763549
BERT END 2019-12-24 12:40:51.862144
# Embeddings loaded >> Matrix size: (66260, 1024)
BERT LOADED 2019-12-24 12:40:52.190361
Model: "sequential_1"
_________________________________________________________________
Layer (type)                 Output Shape              Param #   
=================================================================
embedding_1 (Embedding)      (None, 250, 1024)         67850240  
_________________________________________________________________
conv1d_1 (Conv1D)            (None, 241, 128)          1310848   
_________________________________________________________________
dropout_1 (Dropout)          (None, 241, 128)          0         
_________________________________________________________________
conv1d_2 (Conv1D)            (None, 237, 64)           41024     
_________________________________________________________________
dropout_2 (Dropout)          (None, 237, 64)           0         
_________________________________________________________________
flatten_1 (Flatten)          (None, 15168)             0         
_________________________________________________________________
dense_1 (Dense)              (None, 1)                 15169     
=================================================================
Total params: 69,217,281
Trainable params: 1,367,041
Non-trainable params: 67,850,240
_________________________________________________________________
None

# N Fold 1
target class: severe_toxic
acc: 0.8702290076335878
auc: 0.925692429438143
p: 0.8789808917197452
r: 0.8117647058823529
f: 0.8440366972477065

# N Fold 2
target class: severe_toxic
…
