gpu(0)
TARGET CLASS: severe_toxic
Number of comments: 3924
BERT START 2019-12-27 23:18:48.534257
BERT END 2019-12-27 23:19:19.401724
# Embeddings loaded >> Matrix size: (66260, 1024)
BERT LOADED 2019-12-27 23:19:19.739051
Model: "sequential_1"
_________________________________________________________________
Layer (type)                 Output Shape              Param #   
=================================================================
embedding_1 (Embedding)      (None, 250, 1024)         67850240  
_________________________________________________________________
bidirectional_1 (Bidirection (None, 250, 256)          1180672   
_________________________________________________________________
dropout_1 (Dropout)          (None, 250, 256)          0         
_________________________________________________________________
bidirectional_2 (Bidirection (None, 128)               164352    
_________________________________________________________________
dropout_2 (Dropout)          (None, 128)               0         
_________________________________________________________________
dense_1 (Dense)              (None, 1)                 129       
=================================================================
Total params: 69,195,393
Trainable params: 1,345,153
Non-trainable params: 67,850,240
_________________________________________________________________
None

# N Fold 1
target class: severe_toxic
acc: 0.9312977099236641
auc: 0.9630397594733295
p: 0.9141414141414141
r: 0.9476439790575916
f: 0.9305912596401029

# N Fold 2
target class: severe_toxic
…
