gpu(0)
TARGET CLASS: severe_toxic
Number of comments: 3924
BERT START 2019-12-25 23:32:03.681300
BERT END 2019-12-25 23:32:36.772830
# Embeddings loaded >> Matrix size: (66260, 1024)
BERT LOADED 2019-12-25 23:32:37.100716
Model: "sequential_1"
_________________________________________________________________
Layer (type)                 Output Shape              Param #   
=================================================================
embedding_1 (Embedding)      (None, 250, 1024)         67850240  
_________________________________________________________________
lstm_1 (LSTM)                (None, 250, 128)          590336    
_________________________________________________________________
dropout_1 (Dropout)          (None, 250, 128)          0         
_________________________________________________________________
lstm_2 (LSTM)                (None, 64)                49408     
_________________________________________________________________
dropout_2 (Dropout)          (None, 64)                0         
_________________________________________________________________
dense_1 (Dense)              (None, 1)                 65        
=================================================================
Total params: 68,490,049
Trainable params: 639,809
Non-trainable params: 67,850,240
_________________________________________________________________
None

# N Fold 1
target class: severe_toxic
acc: 0.926208651399491
auc: 0.9705493308434485
p: 0.9441624365482234
r: 0.9117647058823529
f: 0.9276807980049876

# N Fold 2
target class: severe_toxic
…
