gpu(0)
TARGET CLASS: obscene
Number of comments: 24280
BERT START 2019-12-28 02:05:12.801330
BERT END 2019-12-28 02:07:49.621846
# Embeddings loaded >> Matrix size: (416001, 1024)
BERT LOADED 2019-12-28 02:07:51.660831
Model: "sequential_1"
_________________________________________________________________
Layer (type)                 Output Shape              Param #   
=================================================================
embedding_1 (Embedding)      (None, 250, 1024)         425985024 
_________________________________________________________________
bidirectional_1 (Bidirection (None, 250, 256)          1180672   
_________________________________________________________________
dropout_1 (Dropout)          (None, 250, 256)          0         
_________________________________________________________________
bidirectional_2 (Bidirection (None, 128)               164352    
_________________________________________________________________
dropout_2 (Dropout)          (None, 128)               0         
_________________________________________________________________
dense_1 (Dense)              (None, 1)                 129       
=================================================================
Total params: 427,330,177
Trainable params: 1,345,153
Non-trainable params: 425,985,024
_________________________________________________________________
None

# N Fold 1
target class: obscene
acc: 0.8805601317957167
auc: 0.9369412564718052
p: 0.903862660944206
r: 0.8554021121039805
f: 0.8789649415692821

# N Fold 2
target class: obscene
…
