gpu(0)
TARGET CLASS: obscene
Number of comments: 24280
BERT START 2019-12-24 14:12:15.448479
BERT END 2019-12-24 14:14:53.379900
# Embeddings loaded >> Matrix size: (416001, 1024)
BERT LOADED 2019-12-24 14:14:55.427570
Model: "sequential_1"
_________________________________________________________________
Layer (type)                 Output Shape              Param #   
=================================================================
embedding_1 (Embedding)      (None, 250, 1024)         425985024 
_________________________________________________________________
conv1d_1 (Conv1D)            (None, 241, 128)          1310848   
_________________________________________________________________
dropout_1 (Dropout)          (None, 241, 128)          0         
_________________________________________________________________
conv1d_2 (Conv1D)            (None, 237, 64)           41024     
_________________________________________________________________
dropout_2 (Dropout)          (None, 237, 64)           0         
_________________________________________________________________
flatten_1 (Flatten)          (None, 15168)             0         
_________________________________________________________________
dense_1 (Dense)              (None, 1)                 15169     
=================================================================
Total params: 427,352,065
Trainable params: 1,367,041
Non-trainable params: 425,985,024
_________________________________________________________________
None

# N Fold 1
target class: obscene
acc: 0.8088962108731467
auc: 0.8784780194869539
p: 0.8070175438596491
r: 0.820097244732577
f: 0.8135048231511254

# N Fold 2
target class: obscene
…
