gpu(0)
TARGET CLASS: obscene
Number of comments: 24280
BERT START 2019-12-23 17:33:18.525166
BERT END 2019-12-23 17:35:56.473146
# Embeddings loaded >> Matrix size: (416001, 1024)
BERT LOADED 2019-12-23 17:35:58.481814
Model: "sequential_1"
_________________________________________________________________
Layer (type)                 Output Shape              Param #   
=================================================================
embedding_1 (Embedding)      (None, 250, 1024)         425985024 
_________________________________________________________________
dense_1 (Dense)              (None, 250, 128)          131200    
_________________________________________________________________
dropout_1 (Dropout)          (None, 250, 128)          0         
_________________________________________________________________
dense_2 (Dense)              (None, 250, 64)           8256      
_________________________________________________________________
dropout_2 (Dropout)          (None, 250, 64)           0         
_________________________________________________________________
flatten_1 (Flatten)          (None, 16000)             0         
_________________________________________________________________
dense_3 (Dense)              (None, 1)                 16001     
=================================================================
Total params: 426,140,481
Trainable params: 155,457
Non-trainable params: 425,985,024
_________________________________________________________________
None

# N Fold 1
target class: obscene
acc: 0.8521416803953872
auc: 0.9150417392308032
p: 0.8607705779334501
r: 0.830938292476754
f: 0.8455913978494625

# N Fold 2
target class: obscene
…
