gpu(0)
TARGET CLASS: obscene
Number of comments: 24280
BERT START 2019-12-26 00:54:28.921190
BERT END 2019-12-26 00:57:06.707883
# Embeddings loaded >> Matrix size: (416001, 1024)
BERT LOADED 2019-12-26 00:57:08.730513
Model: "sequential_1"
_________________________________________________________________
Layer (type)                 Output Shape              Param #   
=================================================================
embedding_1 (Embedding)      (None, 250, 1024)         425985024 
_________________________________________________________________
lstm_1 (LSTM)                (None, 250, 128)          590336    
_________________________________________________________________
dropout_1 (Dropout)          (None, 250, 128)          0         
_________________________________________________________________
lstm_2 (LSTM)                (None, 64)                49408     
_________________________________________________________________
dropout_2 (Dropout)          (None, 64)                0         
_________________________________________________________________
dense_1 (Dense)              (None, 1)                 65        
=================================================================
Total params: 426,624,833
Trainable params: 639,809
Non-trainable params: 425,985,024
_________________________________________________________________
None

# N Fold 1
target class: obscene
acc: 0.8690280065897859
auc: 0.9407686133055949
p: 0.8566904196357878
r: 0.8876127973748975
f: 0.8718775181305399

# N Fold 2
target class: obscene
…
