gpu(0)
TARGET CLASS: threat
Number of comments: 1378
BERT START 2019-12-24 23:10:12.302510
BERT END 2019-12-24 23:10:26.521485
# Embeddings loaded >> Matrix size: (24180, 1024)
BERT LOADED 2019-12-24 23:10:26.642233
Model: "sequential_1"
_________________________________________________________________
Layer (type)                 Output Shape              Param #   
=================================================================
embedding_1 (Embedding)      (None, 250, 1024)         24760320  
_________________________________________________________________
conv1d_1 (Conv1D)            (None, 241, 128)          1310848   
_________________________________________________________________
dropout_1 (Dropout)          (None, 241, 128)          0         
_________________________________________________________________
conv1d_2 (Conv1D)            (None, 237, 64)           41024     
_________________________________________________________________
dropout_2 (Dropout)          (None, 237, 64)           0         
_________________________________________________________________
flatten_1 (Flatten)          (None, 15168)             0         
_________________________________________________________________
dense_1 (Dense)              (None, 1)                 15169     
=================================================================
Total params: 26,127,361
Trainable params: 1,367,041
Non-trainable params: 24,760,320
_________________________________________________________________
None

# N Fold 1
target class: threat
acc: 0.5217391304347826
auc: 0.6832912457912458
p: 0.5
r: 0.9242424242424242
f: 0.648936170212766

# N Fold 2
target class: threat
acc: 0.8478260869565217
…
