gpu(0)
TARGET CLASS: threat
Number of comments: 1378
BERT START 2019-12-23 18:59:42.888775
BERT END 2019-12-23 18:59:57.164853
# Embeddings loaded >> Matrix size: (24180, 1024)
BERT LOADED 2019-12-23 18:59:57.283767
Model: "sequential_1"
_________________________________________________________________
Layer (type)                 Output Shape              Param #   
=================================================================
embedding_1 (Embedding)      (None, 250, 1024)         24760320  
_________________________________________________________________
dense_1 (Dense)              (None, 250, 128)          131200    
_________________________________________________________________
dropout_1 (Dropout)          (None, 250, 128)          0         
_________________________________________________________________
dense_2 (Dense)              (None, 250, 64)           8256      
_________________________________________________________________
dropout_2 (Dropout)          (None, 250, 64)           0         
_________________________________________________________________
flatten_1 (Flatten)          (None, 16000)             0         
_________________________________________________________________
dense_3 (Dense)              (None, 1)                 16001     
=================================================================
Total params: 24,915,777
Trainable params: 155,457
Non-trainable params: 24,760,320
_________________________________________________________________
None

# N Fold 1
target class: threat
acc: 0.8623188405797102
auc: 0.9194166489248456
p: 0.8918918918918919
r: 0.8571428571428571
f: 0.8741721854304636

# N Fold 2
target class: threat
…
