gpu(0)
TARGET CLASS: threat
Number of comments: 1378
BERT START 2019-12-28 18:35:23.157396
BERT END 2019-12-28 18:35:37.534213
# Embeddings loaded >> Matrix size: (24180, 1024)
BERT LOADED 2019-12-28 18:35:37.658996
Model: "sequential_1"
_________________________________________________________________
Layer (type)                 Output Shape              Param #   
=================================================================
embedding_1 (Embedding)      (None, 250, 1024)         24760320  
_________________________________________________________________
bidirectional_1 (Bidirection (None, 250, 256)          1180672   
_________________________________________________________________
dropout_1 (Dropout)          (None, 250, 256)          0         
_________________________________________________________________
bidirectional_2 (Bidirection (None, 128)               164352    
_________________________________________________________________
dropout_2 (Dropout)          (None, 128)               0         
_________________________________________________________________
dense_1 (Dense)              (None, 1)                 129       
=================================================================
Total params: 26,105,473
Trainable params: 1,345,153
Non-trainable params: 24,760,320
_________________________________________________________________
None

# N Fold 1
target class: threat
acc: 0.927536231884058
auc: 0.9781144781144782
p: 0.8888888888888888
r: 0.9696969696969697
f: 0.927536231884058

# N Fold 2
target class: threat
…
