gpu(0)
TARGET CLASS: threat
Number of comments: 1378
BERT START 2019-12-26 08:45:11.315559
BERT END 2019-12-26 08:45:25.527254
# Embeddings loaded >> Matrix size: (24180, 1024)
BERT LOADED 2019-12-26 08:45:25.647889
Model: "sequential_1"
_________________________________________________________________
Layer (type)                 Output Shape              Param #   
=================================================================
embedding_1 (Embedding)      (None, 250, 1024)         24760320  
_________________________________________________________________
lstm_1 (LSTM)                (None, 250, 128)          590336    
_________________________________________________________________
dropout_1 (Dropout)          (None, 250, 128)          0         
_________________________________________________________________
lstm_2 (LSTM)                (None, 64)                49408     
_________________________________________________________________
dropout_2 (Dropout)          (None, 64)                0         
_________________________________________________________________
dense_1 (Dense)              (None, 1)                 65        
=================================================================
Total params: 25,400,129
Trainable params: 639,809
Non-trainable params: 24,760,320
_________________________________________________________________
None

# N Fold 1
target class: threat
acc: 0.8840579710144928
auc: 0.9497028862478777
p: 0.9054054054054054
r: 0.881578947368421
f: 0.8933333333333332

# N Fold 2
target class: threat
…
