gpu(0)
TARGET CLASS: identity_hate
Number of comments: 4234
BERT START 2019-12-26 09:18:48.526551
BERT END 2019-12-26 09:19:20.472684
# Embeddings loaded >> Matrix size: (71039, 1024)
BERT LOADED 2019-12-26 09:19:20.818376
Model: "sequential_1"
_________________________________________________________________
Layer (type)                 Output Shape              Param #   
=================================================================
embedding_1 (Embedding)      (None, 250, 1024)         72743936  
_________________________________________________________________
lstm_1 (LSTM)                (None, 250, 128)          590336    
_________________________________________________________________
dropout_1 (Dropout)          (None, 250, 128)          0         
_________________________________________________________________
lstm_2 (LSTM)                (None, 64)                49408     
_________________________________________________________________
dropout_2 (Dropout)          (None, 64)                0         
_________________________________________________________________
dense_1 (Dense)              (None, 1)                 65        
=================================================================
Total params: 73,383,745
Trainable params: 639,809
Non-trainable params: 72,743,936
_________________________________________________________________
None

# N Fold 1
target class: identity_hate
acc: 0.8702830188679245
auc: 0.9469941822882999
p: 0.8878504672897196
r: 0.8597285067873304
f: 0.8735632183908046

# N Fold 2
target class: identity_hate
…
