gpu(0)
TARGET CLASS: identity_hate
Number of comments: 4234
BERT START 2019-12-28 19:42:38.122577
BERT END 2019-12-28 19:43:10.264241
# Embeddings loaded >> Matrix size: (71039, 1024)
BERT LOADED 2019-12-28 19:43:10.622984
Model: "sequential_1"
_________________________________________________________________
Layer (type)                 Output Shape              Param #   
=================================================================
embedding_1 (Embedding)      (None, 250, 1024)         72743936  
_________________________________________________________________
bidirectional_1 (Bidirection (None, 250, 256)          1180672   
_________________________________________________________________
dropout_1 (Dropout)          (None, 250, 256)          0         
_________________________________________________________________
bidirectional_2 (Bidirection (None, 128)               164352    
_________________________________________________________________
dropout_2 (Dropout)          (None, 128)               0         
_________________________________________________________________
dense_1 (Dense)              (None, 1)                 129       
=================================================================
Total params: 74,089,089
Trainable params: 1,345,153
Non-trainable params: 72,743,936
_________________________________________________________________
None

# N Fold 1
target class: identity_hate
acc: 0.8773584905660378
auc: 0.9487899692155586
p: 0.845771144278607
r: 0.8900523560209425
f: 0.8673469387755102

# N Fold 2
target class: identity_hate
…
