gpu(0)
TARGET CLASS: identity_hate
Number of comments: 4234
BERT START 2019-12-24 23:47:05.384059
BERT END 2019-12-24 23:47:37.427089
# Embeddings loaded >> Matrix size: (71039, 1024)
BERT LOADED 2019-12-24 23:47:37.774214
Model: "sequential_1"
_________________________________________________________________
Layer (type)                 Output Shape              Param #   
=================================================================
embedding_1 (Embedding)      (None, 250, 1024)         72743936  
_________________________________________________________________
conv1d_1 (Conv1D)            (None, 241, 128)          1310848   
_________________________________________________________________
dropout_1 (Dropout)          (None, 241, 128)          0         
_________________________________________________________________
conv1d_2 (Conv1D)            (None, 237, 64)           41024     
_________________________________________________________________
dropout_2 (Dropout)          (None, 237, 64)           0         
_________________________________________________________________
flatten_1 (Flatten)          (None, 15168)             0         
_________________________________________________________________
dense_1 (Dense)              (None, 1)                 15169     
=================================================================
Total params: 74,110,977
Trainable params: 1,367,041
Non-trainable params: 72,743,936
_________________________________________________________________
None

# N Fold 1
target class: identity_hate
acc: 0.8136792452830188
auc: 0.8815994480056979
p: 0.8056872037914692
r: 0.8173076923076923
f: 0.8114558472553699

# N Fold 2
target class: identity_hate
…
