gpu(0)
TARGET CLASS: identity_hate
Number of comments: 4234
BERT START 2019-12-23 19:04:57.135937
BERT END 2019-12-23 19:05:29.397961
# Embeddings loaded >> Matrix size: (71039, 1024)
BERT LOADED 2019-12-23 19:05:29.748803
Model: "sequential_1"
_________________________________________________________________
Layer (type)                 Output Shape              Param #   
=================================================================
embedding_1 (Embedding)      (None, 250, 1024)         72743936  
_________________________________________________________________
dense_1 (Dense)              (None, 250, 128)          131200    
_________________________________________________________________
dropout_1 (Dropout)          (None, 250, 128)          0         
_________________________________________________________________
dense_2 (Dense)              (None, 250, 64)           8256      
_________________________________________________________________
dropout_2 (Dropout)          (None, 250, 64)           0         
_________________________________________________________________
flatten_1 (Flatten)          (None, 16000)             0         
_________________________________________________________________
dense_3 (Dense)              (None, 1)                 16001     
=================================================================
Total params: 72,899,393
Trainable params: 155,457
Non-trainable params: 72,743,936
_________________________________________________________________
None

# N Fold 1
target class: identity_hate
acc: 0.8372641509433962
auc: 0.9230087701590292
p: 0.8616071428571429
r: 0.8354978354978355
f: 0.8483516483516484

# N Fold 2
target class: identity_hate
…
