gpu(0)
TARGET CLASS: insult
Number of comments: 22608
BERT START 2019-12-28 22:52:40.649770
BERT END 2019-12-28 22:55:08.253445
# Embeddings loaded >> Matrix size: (387910, 1024)
BERT LOADED 2019-12-28 22:55:10.187412
Model: "sequential_1"
_________________________________________________________________
Layer (type)                 Output Shape              Param #   
=================================================================
embedding_1 (Embedding)      (None, 250, 1024)         397219840 
_________________________________________________________________
bidirectional_1 (Bidirection (None, 250, 256)          1180672   
_________________________________________________________________
dropout_1 (Dropout)          (None, 250, 256)          0         
_________________________________________________________________
bidirectional_2 (Bidirection (None, 128)               164352    
_________________________________________________________________
dropout_2 (Dropout)          (None, 128)               0         
_________________________________________________________________
dense_1 (Dense)              (None, 1)                 129       
=================================================================
Total params: 398,564,993
Trainable params: 1,345,153
Non-trainable params: 397,219,840
_________________________________________________________________
None

# N Fold 1
target class: insult
acc: 0.8796992481203008
auc: 0.9456289886915996
p: 0.900375939849624
r: 0.8523131672597865
f: 0.8756855575868373

# N Fold 2
target class: insult
…
