gpu(0)
TARGET CLASS: insult
Number of comments: 22608
BERT START 2019-12-26 10:47:19.354775
BERT END 2019-12-26 10:49:45.430938
# Embeddings loaded >> Matrix size: (387910, 1024)
BERT LOADED 2019-12-26 10:49:47.329071
Model: "sequential_1"
_________________________________________________________________
Layer (type)                 Output Shape              Param #   
=================================================================
embedding_1 (Embedding)      (None, 250, 1024)         397219840 
_________________________________________________________________
lstm_1 (LSTM)                (None, 250, 128)          590336    
_________________________________________________________________
dropout_1 (Dropout)          (None, 250, 128)          0         
_________________________________________________________________
lstm_2 (LSTM)                (None, 64)                49408     
_________________________________________________________________
dropout_2 (Dropout)          (None, 64)                0         
_________________________________________________________________
dense_1 (Dense)              (None, 1)                 65        
=================================================================
Total params: 397,859,649
Trainable params: 639,809
Non-trainable params: 397,219,840
_________________________________________________________________
None

# N Fold 1
target class: insult
acc: 0.8726227333038479
auc: 0.9396576290506433
p: 0.8763837638376384
r: 0.8605072463768116
f: 0.8683729433272395

# N Fold 2
target class: insult
…
