gpu(0)
TARGET CLASS: insult
Number of comments: 22608
BERT START 2019-12-25 01:26:53.762809
BERT END 2019-12-25 01:29:20.872485
# Embeddings loaded >> Matrix size: (387910, 1024)
BERT LOADED 2019-12-25 01:29:22.757578
Model: "sequential_1"
_________________________________________________________________
Layer (type)                 Output Shape              Param #   
=================================================================
embedding_1 (Embedding)      (None, 250, 1024)         397219840 
_________________________________________________________________
conv1d_1 (Conv1D)            (None, 241, 128)          1310848   
_________________________________________________________________
dropout_1 (Dropout)          (None, 241, 128)          0         
_________________________________________________________________
conv1d_2 (Conv1D)            (None, 237, 64)           41024     
_________________________________________________________________
dropout_2 (Dropout)          (None, 237, 64)           0         
_________________________________________________________________
flatten_1 (Flatten)          (None, 15168)             0         
_________________________________________________________________
dense_1 (Dense)              (None, 1)                 15169     
=================================================================
Total params: 398,586,881
Trainable params: 1,367,041
Non-trainable params: 397,219,840
_________________________________________________________________
None

# N Fold 1
target class: insult
acc: 0.8275099513489607
auc: 0.8999307175625109
p: 0.8363123236124177
r: 0.8045248868778281
f: 0.820110701107011

# N Fold 2
target class: insult
…
