gpu(0)
TARGET CLASS: insult
Number of comments: 22608
BERT START 2019-12-23 19:20:34.228780
BERT END 2019-12-23 19:23:01.504210
# Embeddings loaded >> Matrix size: (387910, 1024)
BERT LOADED 2019-12-23 19:23:03.376978
Model: "sequential_1"
_________________________________________________________________
Layer (type)                 Output Shape              Param #   
=================================================================
embedding_1 (Embedding)      (None, 250, 1024)         397219840 
_________________________________________________________________
dense_1 (Dense)              (None, 250, 128)          131200    
_________________________________________________________________
dropout_1 (Dropout)          (None, 250, 128)          0         
_________________________________________________________________
dense_2 (Dense)              (None, 250, 64)           8256      
_________________________________________________________________
dropout_2 (Dropout)          (None, 250, 64)           0         
_________________________________________________________________
flatten_1 (Flatten)          (None, 16000)             0         
_________________________________________________________________
dense_3 (Dense)              (None, 1)                 16001     
=================================================================
Total params: 397,375,297
Trainable params: 155,457
Non-trainable params: 397,219,840
_________________________________________________________________
None

# N Fold 1
target class: insult
acc: 0.8367978770455551
auc: 0.9095056117881981
p: 0.8183333333333334
r: 0.8667255075022066
f: 0.8418345477925417

# N Fold 2
target class: insult
…
